…
Python 3.10.0 (tags/v3.10.0:b494f59, Oct  4 2021, 19:00:18) [MSC v.1929 64 bit (AMD64)] on win32
runfile('C:\\Users\\jayvs\\Desktop\\fruits_tf-master\\train_cnn.py', wdir='C:\\Users\\jayvs\\Desktop\\fruits_tf-master')
Found 1610 files belonging to 7 classes.
Found 710 files belonging to 7 classes.
['apple', 'banana', 'cherry', 'orange', 'pineapple', 'strawberry', 'watermelon']
Model: "sequential"
_________________________________________________________________
 Layer (type)                Output Shape              Param #
=================================================================
 rescaling (Rescaling)       (None, 224, 224, 3)       0

 conv2d (Conv2D)             (None, 222, 222, 32)      896

 max_pooling2d (MaxPooling2D  (None, 111, 111, 32)     0
 )

 conv2d_1 (Conv2D)           (None, 109, 109, 64)      18496

 max_pooling2d_1 (MaxPooling  (None, 54, 54, 64)       0
 2D)

 dropout (Dropout)           (None, 54, 54, 64)        0

 flatten (Flatten)           (None, 186624)            0

 dense (Dense)               (None, 128)               23888000

 dense_1 (Dense)             (None, 7)                 903

=================================================================
Total params: 23,908,295
Trainable params: 23,908,295
Non-trainable params: 0
_________________________________________________________________
Epoch 1/30
101/101 [==============================] - 47s 455ms/step - loss: 1.8431 - accuracy: 0.2708 - val_loss: 1.6391 - val_accuracy: 0.3310
Epoch 2/30
101/101 [==============================] - 42s 416ms/step - loss: 1.4728 - accuracy: 0.4248 - val_loss: 1.3270 - val_accuracy: 0.4746
…
